…
/cosmo/homes/nramachandra/lensJPG/ml_classification_studies/CosmoML/Classification/slurm-80040/model_architectures/model.py:23: UserWarning: Update your `Conv2D` call to the Keras 2 API: `Conv2D(64, (3, 3))`
  model.add(Convolution2D(64, 3, 3))
(16000, 45, 45)
(16000, 45, 45, 1)
(16000, 45, 45, 1)
[0 1 0 ..., 1 0 1]
Train mean, sd: 0.177621 0.237504
Train shape: (16000, 45, 45, 1)
16000 train samples
_________________________________________________________________
Layer (type)                 Output Shape              Param #   
=================================================================
conv2d_1 (Conv2D)            (None, 45, 45, 32)        320       
_________________________________________________________________
activation_1 (Activation)    (None, 45, 45, 32)        0         
_________________________________________________________________
conv2d_2 (Conv2D)            (None, 43, 43, 32)        9248      
_________________________________________________________________
activation_2 (Activation)    (None, 43, 43, 32)        0         
_________________________________________________________________
max_pooling2d_1 (MaxPooling2 (None, 21, 21, 32)        0         
_________________________________________________________________
dropout_1 (Dropout)          (None, 21, 21, 32)        0         
_________________________________________________________________
conv2d_3 (Conv2D)            (None, 19, 19, 64)        18496     
_________________________________________________________________
activation_3 (Activation)    (None, 19, 19, 64)        0         
_________________________________________________________________
conv2d_4 (Conv2D)            (None, 17, 17, 64)        36928     
_________________________________________________________________
activation_4 (Activation)    (None, 17, 17, 64)        0         
_________________________________________________________________
max_pooling2d_2 (MaxPooling2 (None, 8, 8, 64)          0         
_________________________________________________________________
dropout_2 (Dropout)          (None, 8, 8, 64)          0         
_________________________________________________________________
flatten_1 (Flatten)          (None, 4096)              0         
_________________________________________________________________
dense_1 (Dense)              (None, 64)                262208    
_________________________________________________________________
activation_5 (Activation)    (None, 64)                0         
_________________________________________________________________
dropout_3 (Dropout)          (None, 64)                0         
_________________________________________________________________
dense_2 (Dense)              (None, 2)                 130       
_________________________________________________________________
activation_6 (Activation)    (None, 2)                 0         
=================================================================
Total params: 327,330.0
Trainable params: 327,330.0
Non-trainable params: 0.0
_________________________________________________________________
None
Implementing pre-process and (real-time) data-augmentation (Check default options)
Epoch 1/10
104s - loss: 0.6868 - acc: 0.5448 - val_loss: 0.6657 - val_acc: 0.5941
Epoch 2/10
…
