…
2018-01-25 16:00:58.131216: I tensorflow/core/common_runtime/gpu/gpu_device.cc:918] 0:   Y 
2018-01-25 16:00:58.131246: I tensorflow/core/common_runtime/gpu/gpu_device.cc:977] Creating TensorFlow device (/gpu:0) -> (device: 0, name: Tesla P100-PCIE-16GB, pci bus id: 0000:83:00.0)
(16000, 45, 45)
(16000, 45, 45, 1)
(16000, 45, 45, 1)
[0 1 0 ..., 1 0 1]
Train mean, sd: 0.177621 0.237504
Train shape: (16000, 45, 45, 1)
16000 train samples
_________________________________________________________________
Layer (type)                 Output Shape              Param #   
=================================================================
conv2d_1 (Conv2D)            (None, 45, 45, 32)        320       
_________________________________________________________________
activation_1 (Activation)    (None, 45, 45, 32)        0         
_________________________________________________________________
conv2d_2 (Conv2D)            (None, 43, 43, 32)        9248      
_________________________________________________________________
activation_2 (Activation)    (None, 43, 43, 32)        0         
_________________________________________________________________
max_pooling2d_1 (MaxPooling2 (None, 21, 21, 32)        0         
_________________________________________________________________
dropout_1 (Dropout)          (None, 21, 21, 32)        0         
_________________________________________________________________
conv2d_3 (Conv2D)            (None, 19, 19, 64)        18496     
_________________________________________________________________
activation_3 (Activation)    (None, 19, 19, 64)        0         
_________________________________________________________________
conv2d_4 (Conv2D)            (None, 17, 17, 64)        36928     
_________________________________________________________________
activation_4 (Activation)    (None, 17, 17, 64)        0         
_________________________________________________________________
max_pooling2d_2 (MaxPooling2 (None, 8, 8, 64)          0         
_________________________________________________________________
dropout_2 (Dropout)          (None, 8, 8, 64)          0         
_________________________________________________________________
flatten_1 (Flatten)          (None, 4096)              0         
_________________________________________________________________
dense_1 (Dense)              (None, 64)                262208    
_________________________________________________________________
activation_5 (Activation)    (None, 64)                0         
_________________________________________________________________
dropout_3 (Dropout)          (None, 64)                0         
_________________________________________________________________
dense_2 (Dense)              (None, 2)                 130       
_________________________________________________________________
activation_6 (Activation)    (None, 2)                 0         
=================================================================
Total params: 327,330.0
Trainable params: 327,330.0
Non-trainable params: 0.0
_________________________________________________________________
None
Implementing pre-process and (real-time) data-augmentation (Check default options)
Epoch 1/10
94s - loss: 0.6856 - acc: 0.5492 - val_loss: 0.6652 - val_acc: 0.5878
Epoch 2/10
10s - loss: 0.6723 - acc: 0.5840 - val_loss: 0.6671 - val_acc: 0.5709
…
